Using TensorFlow backend.
WARNING:tensorflow:From /usr/local/lib/python3.5/dist-packages/tensorflow/python/framework/op_def_library.py:263: colocate_with (from tensorflow.python.framework.ops) is deprecated and will be removed in a future version.
Instructions for updating:
Colocations handled automatically by placer.
_________________________________________________________________
Layer (type)                 Output Shape              Param #   
=================================================================
state_input (InputLayer)     (None, 1, 17)             0         
_________________________________________________________________
flatten_1 (Flatten)          (None, 17)                0         
_________________________________________________________________
dense_1 (Dense)              (None, 400)               7200      
_________________________________________________________________
activation_1 (Activation)    (None, 400)               0         
_________________________________________________________________
dense_2 (Dense)              (None, 300)               120300    
_________________________________________________________________
activation_2 (Activation)    (None, 300)               0         
_________________________________________________________________
dense_3 (Dense)              (None, 6)                 1806      
_________________________________________________________________
activation_3 (Activation)    (None, 6)                 0         
_________________________________________________________________
lambda_1 (Lambda)            (None, 6)                 0         
=================================================================
Total params: 129,306
Trainable params: 129,306
Non-trainable params: 0
_________________________________________________________________
None
__________________________________________________________________________________________________
Layer (type)                    Output Shape         Param #     Connected to                     
==================================================================================================
observation_input (InputLayer)  (None, 1, 17)        0                                            
__________________________________________________________________________________________________
action_input (InputLayer)       (None, 6)            0                                            
__________________________________________________________________________________________________
flatten_2 (Flatten)             (None, 17)           0           observation_input[0][0]          
__________________________________________________________________________________________________
concatenate_1 (Concatenate)     (None, 23)           0           action_input[0][0]               
                                                                 flatten_2[0][0]                  
__________________________________________________________________________________________________
dense_4 (Dense)                 (None, 400)          9600        concatenate_1[0][0]              
__________________________________________________________________________________________________
activation_4 (Activation)       (None, 400)          0           dense_4[0][0]                    
__________________________________________________________________________________________________
dense_5 (Dense)                 (None, 300)          120300      activation_4[0][0]               
__________________________________________________________________________________________________
activation_5 (Activation)       (None, 300)          0           dense_5[0][0]                    
__________________________________________________________________________________________________
dense_6 (Dense)                 (None, 1)            301         activation_5[0][0]               
__________________________________________________________________________________________________
activation_6 (Activation)       (None, 1)            0           dense_6[0][0]                    
==================================================================================================
Total params: 130,201
Trainable params: 130,201
Non-trainable params: 0
__________________________________________________________________________________________________
None
[1. 1. 1. 1. 1. 1.]
2019-06-11 14:12:15.414737: I tensorflow/core/platform/cpu_feature_guard.cc:141] Your CPU supports instructions that this TensorFlow binary was not compiled to use: AVX2 FMA
…
