Using TensorFlow backend.
running build_ext
(2,)
_________________________________________________________________
Layer (type)                 Output Shape              Param #   
=================================================================
flatten_1 (Flatten)          (None, 2)                 0         
_________________________________________________________________
dense_1 (Dense)              (None, 32)                96        
_________________________________________________________________
activation_1 (Activation)    (None, 32)                0         
_________________________________________________________________
dense_2 (Dense)              (None, 32)                1056      
_________________________________________________________________
activation_2 (Activation)    (None, 32)                0         
_________________________________________________________________
dense_3 (Dense)              (None, 1)                 33        
_________________________________________________________________
activation_3 (Activation)    (None, 1)                 0         
=================================================================
Total params: 1,185
Trainable params: 1,185
Non-trainable params: 0
_________________________________________________________________
None
__________________________________________________________________________________________________
Layer (type)                    Output Shape         Param #     Connected to                     
==================================================================================================
observation_input (InputLayer)  (None, 1, 2)         0                                            
__________________________________________________________________________________________________
action_input (InputLayer)       (None, 1)            0                                            
__________________________________________________________________________________________________
flatten_2 (Flatten)             (None, 2)            0           observation_input[0][0]          
__________________________________________________________________________________________________
concatenate_1 (Concatenate)     (None, 3)            0           action_input[0][0]               
                                                                 flatten_2[0][0]                  
__________________________________________________________________________________________________
dense_4 (Dense)                 (None, 32)           128         concatenate_1[0][0]              
__________________________________________________________________________________________________
activation_4 (Activation)       (None, 32)           0           dense_4[0][0]                    
__________________________________________________________________________________________________
dense_5 (Dense)                 (None, 32)           1056        activation_4[0][0]               
__________________________________________________________________________________________________
activation_5 (Activation)       (None, 32)           0           dense_5[0][0]                    
__________________________________________________________________________________________________
dense_6 (Dense)                 (None, 1)            33          activation_5[0][0]               
__________________________________________________________________________________________________
activation_6 (Activation)       (None, 1)            0           dense_6[0][0]                    
==================================================================================================
Total params: 1,217
Trainable params: 1,217
Non-trainable params: 0
__________________________________________________________________________________________________
None
2019-01-27 22:51:02.984710: I tensorflow/core/platform/cpu_feature_guard.cc:141] Your CPU supports instructions that this TensorFlow binary was not compiled to use: AVX2 FMA
…
