Using TensorFlow backend.
_________________________________________________________________
Layer (type)                 Output Shape              Param #   
=================================================================
state_input (InputLayer)     (None, 1, 16)             0         
_________________________________________________________________
flatten_1 (Flatten)          (None, 16)                0         
_________________________________________________________________
dense_1 (Dense)              (None, 400)               6800      
_________________________________________________________________
activation_1 (Activation)    (None, 400)               0         
_________________________________________________________________
dense_2 (Dense)              (None, 300)               120300    
_________________________________________________________________
activation_2 (Activation)    (None, 300)               0         
_________________________________________________________________
dense_3 (Dense)              (None, 5)                 1505      
_________________________________________________________________
activation_3 (Activation)    (None, 5)                 0         
_________________________________________________________________
lambda_1 (Lambda)            (None, 5)                 0         
=================================================================
Total params: 128,605
Trainable params: 128,605
Non-trainable params: 0
_________________________________________________________________
None
__________________________________________________________________________________________________
Layer (type)                    Output Shape         Param #     Connected to                     
==================================================================================================
observation_input (InputLayer)  (None, 1, 16)        0                                            
__________________________________________________________________________________________________
action_input (InputLayer)       (None, 5)            0                                            
__________________________________________________________________________________________________
flatten_2 (Flatten)             (None, 16)           0           observation_input[0][0]          
__________________________________________________________________________________________________
concatenate_1 (Concatenate)     (None, 21)           0           action_input[0][0]               
                                                                 flatten_2[0][0]                  
__________________________________________________________________________________________________
dense_4 (Dense)                 (None, 400)          8800        concatenate_1[0][0]              
__________________________________________________________________________________________________
activation_4 (Activation)       (None, 400)          0           dense_4[0][0]                    
__________________________________________________________________________________________________
dense_5 (Dense)                 (None, 300)          120300      activation_4[0][0]               
__________________________________________________________________________________________________
activation_5 (Activation)       (None, 300)          0           dense_5[0][0]                    
__________________________________________________________________________________________________
dense_6 (Dense)                 (None, 1)            301         activation_5[0][0]               
__________________________________________________________________________________________________
activation_6 (Activation)       (None, 1)            0           dense_6[0][0]                    
==================================================================================================
Total params: 129,401
Trainable params: 129,401
Non-trainable params: 0
__________________________________________________________________________________________________
None
2019-03-13 12:26:45.815409: I tensorflow/core/platform/cpu_feature_guard.cc:141] Your CPU supports instructions that this TensorFlow binary was not compiled to use: AVX2 FMA
…
