Using TensorFlow backend.
running build_ext
_________________________________________________________________
Layer (type)                 Output Shape              Param #   
=================================================================
state_input (InputLayer)     (None, 1, 10)             0         
_________________________________________________________________
flatten_1 (Flatten)          (None, 10)                0         
_________________________________________________________________
dense_1 (Dense)              (None, 400)               4400      
_________________________________________________________________
activation_1 (Activation)    (None, 400)               0         
_________________________________________________________________
dense_2 (Dense)              (None, 300)               120300    
_________________________________________________________________
activation_2 (Activation)    (None, 300)               0         
_________________________________________________________________
dense_3 (Dense)              (None, 2)                 602       
_________________________________________________________________
activation_3 (Activation)    (None, 2)                 0         
_________________________________________________________________
lambda_1 (Lambda)            (None, 2)                 0         
=================================================================
Total params: 125,302
Trainable params: 125,302
Non-trainable params: 0
_________________________________________________________________
None
__________________________________________________________________________________________________
Layer (type)                    Output Shape         Param #     Connected to                     
==================================================================================================
observation_input (InputLayer)  (None, 1, 10)        0                                            
__________________________________________________________________________________________________
action_input (InputLayer)       (None, 2)            0                                            
__________________________________________________________________________________________________
flatten_2 (Flatten)             (None, 10)           0           observation_input[0][0]          
__________________________________________________________________________________________________
concatenate_1 (Concatenate)     (None, 12)           0           action_input[0][0]               
                                                                 flatten_2[0][0]                  
__________________________________________________________________________________________________
dense_4 (Dense)                 (None, 400)          5200        concatenate_1[0][0]              
__________________________________________________________________________________________________
activation_4 (Activation)       (None, 400)          0           dense_4[0][0]                    
__________________________________________________________________________________________________
dense_5 (Dense)                 (None, 300)          120300      activation_4[0][0]               
__________________________________________________________________________________________________
activation_5 (Activation)       (None, 300)          0           dense_5[0][0]                    
__________________________________________________________________________________________________
dense_6 (Dense)                 (None, 1)            301         activation_5[0][0]               
__________________________________________________________________________________________________
activation_6 (Activation)       (None, 1)            0           dense_6[0][0]                    
==================================================================================================
Total params: 125,801
Trainable params: 125,801
Non-trainable params: 0
__________________________________________________________________________________________________
None
2019-02-13 13:22:23.994371: I tensorflow/core/platform/cpu_feature_guard.cc:141] Your CPU supports instructions that this TensorFlow binary was not compiled to use: AVX2 FMA
…
